_________________________________________________________________
Layer (type)                 Output Shape              Param #   
=================================================================
batch_normalization_1 (Batch (None, 51)                204       
_________________________________________________________________
dense_1 (Dense)              (None, 12)                624       
_________________________________________________________________
dropout_1 (Dropout)          (None, 12)                0         
_________________________________________________________________
dense_2 (Dense)              (None, 8)                 104       
_________________________________________________________________
dropout_2 (Dropout)          (None, 8)                 0         
_________________________________________________________________
dense_3 (Dense)              (None, 1)                 9         
=================================================================
Total params: 941
Trainable params: 839
Non-trainable params: 102
_________________________________________________________________
None
256 training examples for iteration 0
Train on 256 samples, validate on 128 samples
Epoch 1/100

 32/256 [==>...........................] - ETA: 3s - loss: 0.3461 - acc: 0.5625
256/256 [==============================] - 1s 2ms/step - loss: 0.3698 - acc: 0.4531 - val_loss: 0.3379 - val_acc: 0.5391
…
