_________________________________________________________________
Layer (type)                 Output Shape              Param #   
=================================================================
input_1 (InputLayer)         (None, 40)                0         
_________________________________________________________________
batch_normalization_1 (Batch (None, 40)                160       
_________________________________________________________________
dense_1 (Dense)              (None, 12)                492       
_________________________________________________________________
dropout_1 (Dropout)          (None, 12)                0         
_________________________________________________________________
dense_2 (Dense)              (None, 8)                 104       
_________________________________________________________________
dropout_2 (Dropout)          (None, 8)                 0         
_________________________________________________________________
dense_3 (Dense)              (None, 1)                 9         
=================================================================
Total params: 765
Trainable params: 685
Non-trainable params: 80
_________________________________________________________________
None
Epoch 1/1

  32/2049 [..............................] - ETA: 36s - loss: 0.7149 - acc: 0.4688
1056/2049 [==============>...............] - ETA: 0s - loss: 0.5868 - acc: 0.4820 
2049/2049 [==============================] - 1s 330us/step - loss: 0.4528 - acc: 0.5520
…
