…
2018-06-28 16:28:18.702668: I tensorflow/core/common_runtime/gpu/gpu_device.cc:1053] Created TensorFlow device (/job:localhost/replica:0/task:0/device:GPU:0 with 11248 MB memory) -> physical GPU (device: 0, name: Tesla P100-PCIE-12GB, pci bus id: 0000:83:00.0, compute capability: 6.0)
2018-06-28 16:28:18.884941: I tensorflow/core/common_runtime/process_util.cc:63] Creating new thread pool with default inter op setting: 2. Tune using inter_op_parallelism_threads for best performance.
_________________________________________________________________
Layer (type)                 Output Shape              Param #   
=================================================================
conv2d_1 (Conv2D)            (None, 24, 24, 16)        272       
_________________________________________________________________
conv2d_2 (Conv2D)            (None, 11, 11, 32)        4640      
_________________________________________________________________
conv2d_3 (Conv2D)            (None, 10, 10, 64)        8256      
_________________________________________________________________
flatten_1 (Flatten)          (None, 6400)              0         
_________________________________________________________________
dense_1 (Dense)              (None, 64)                409664    
_________________________________________________________________
dropout_1 (Dropout)          (None, 64)                0         
_________________________________________________________________
dense_2 (Dense)              (None, 16)                1040      
_________________________________________________________________
dropout_2 (Dropout)          (None, 16)                0         
_________________________________________________________________
dense_3 (Dense)              (None, 1)                 17        
=================================================================
Total params: 423,889
Trainable params: 423,889
Non-trainable params: 0
_________________________________________________________________
None
Epoch 1/20

  1/128 [..............................] - ETA: 1:23:29 - loss: 0.7050 - acc: 0.4375
  7/128 [>.............................] - ETA: 11:22 - loss: 1.9002 - acc: 0.2500  
 12/128 [=>............................] - ETA: 6:24 - loss: 1.8482 - acc: 0.2786 
…
