Using TensorFlow backend.
_________________________________________________________________
Layer (type)                 Output Shape              Param #
=================================================================
batch_normalization_1 (Batch (None, 72)                288
_________________________________________________________________
dense_1 (Dense)              (None, 24)                1752
_________________________________________________________________
dropout_1 (Dropout)          (None, 24)                0
_________________________________________________________________
dense_2 (Dense)              (None, 6)                 150
_________________________________________________________________
dropout_2 (Dropout)          (None, 6)                 0
_________________________________________________________________
dense_3 (Dense)              (None, 1)                 7
=================================================================
Total params: 2,197
Trainable params: 2,053
Non-trainable params: 144
_________________________________________________________________
None
Train on 1555 samples, validate on 128 samples
Epoch 1/100
2018-07-15 20:26:53.623885: I tensorflow/core/platform/cpu_feature_guard.cc:140] Your CPU supports instructions that this TensorFlow binary was not compiled to use: AVX2 FMA
…
