…
2018-07-09 17:10:25.059830: I tensorflow/core/common_runtime/gpu/gpu_device.cc:1053] Created TensorFlow device (/job:localhost/replica:0/task:0/device:GPU:0 with 11248 MB memory) -> physical GPU (device: 0, name: Tesla P100-PCIE-12GB, pci bus id: 0000:04:00.0, compute capability: 6.0)
2018-07-09 17:10:25.291089: I tensorflow/core/common_runtime/process_util.cc:63] Creating new thread pool with default inter op setting: 2. Tune using inter_op_parallelism_threads for best performance.
_________________________________________________________________
Layer (type)                 Output Shape              Param #   
=================================================================
batch_normalization_1 (Batch (None, 100000, 2)         8         
_________________________________________________________________
conv1d_1 (Conv1D)            (None, 24981, 48)         7728      
_________________________________________________________________
max_pooling1d_1 (MaxPooling1 (None, 4163, 48)          0         
_________________________________________________________________
batch_normalization_2 (Batch (None, 4163, 48)          192       
_________________________________________________________________
conv1d_2 (Conv1D)            (None, 4161, 48)          6960      
_________________________________________________________________
batch_normalization_3 (Batch (None, 4161, 48)          192       
_________________________________________________________________
conv1d_3 (Conv1D)            (None, 4159, 48)          6960      
_________________________________________________________________
batch_normalization_4 (Batch (None, 4159, 48)          192       
_________________________________________________________________
conv1d_4 (Conv1D)            (None, 4157, 48)          6960      
_________________________________________________________________
batch_normalization_5 (Batch (None, 4157, 48)          192       
_________________________________________________________________
max_pooling1d_2 (MaxPooling1 (None, 692, 48)           0         
_________________________________________________________________
batch_normalization_6 (Batch (None, 692, 48)           192       
_________________________________________________________________
conv1d_5 (Conv1D)            (None, 690, 96)           13920     
_________________________________________________________________
batch_normalization_7 (Batch (None, 690, 96)           384       
_________________________________________________________________
conv1d_6 (Conv1D)            (None, 688, 96)           27744     
_________________________________________________________________
batch_normalization_8 (Batch (None, 688, 96)           384       
_________________________________________________________________
conv1d_7 (Conv1D)            (None, 686, 96)           27744     
_________________________________________________________________
batch_normalization_9 (Batch (None, 686, 96)           384       
_________________________________________________________________
conv1d_8 (Conv1D)            (None, 684, 96)           27744     
_________________________________________________________________
batch_normalization_10 (Batc (None, 684, 96)           384       
_________________________________________________________________
max_pooling1d_3 (MaxPooling1 (None, 114, 96)           0         
_________________________________________________________________
batch_normalization_11 (Batc (None, 114, 96)           384       
_________________________________________________________________
conv1d_9 (Conv1D)            (None, 112, 192)          55488     
_________________________________________________________________
batch_normalization_12 (Batc (None, 112, 192)          768       
_________________________________________________________________
conv1d_10 (Conv1D)           (None, 110, 192)          110784    
_________________________________________________________________
batch_normalization_13 (Batc (None, 110, 192)          768       
_________________________________________________________________
conv1d_11 (Conv1D)           (None, 108, 192)          110784    
_________________________________________________________________
batch_normalization_14 (Batc (None, 108, 192)          768       
_________________________________________________________________
conv1d_12 (Conv1D)           (None, 106, 192)          110784    
_________________________________________________________________
batch_normalization_15 (Batc (None, 106, 192)          768       
_________________________________________________________________
conv1d_13 (Conv1D)           (None, 104, 192)          110784    
_________________________________________________________________
batch_normalization_16 (Batc (None, 104, 192)          768       
_________________________________________________________________
conv1d_14 (Conv1D)           (None, 102, 192)          110784    
_________________________________________________________________
batch_normalization_17 (Batc (None, 102, 192)          768       
_________________________________________________________________
max_pooling1d_4 (MaxPooling1 (None, 17, 192)           0         
_________________________________________________________________
batch_normalization_18 (Batc (None, 17, 192)           768       
_________________________________________________________________
conv1d_15 (Conv1D)           (None, 15, 384)           221568    
_________________________________________________________________
batch_normalization_19 (Batc (None, 15, 384)           1536      
_________________________________________________________________
conv1d_16 (Conv1D)           (None, 13, 384)           442752    
_________________________________________________________________
batch_normalization_20 (Batc (None, 13, 384)           1536      
_________________________________________________________________
conv1d_17 (Conv1D)           (None, 11, 384)           442752    
_________________________________________________________________
batch_normalization_21 (Batc (None, 11, 384)           1536      
_________________________________________________________________
flatten_1 (Flatten)          (None, 4224)              0         
_________________________________________________________________
dense_1 (Dense)              (None, 1)                 4225      
=================================================================
Total params: 1,859,337
Trainable params: 1,852,901
Non-trainable params: 6,436
_________________________________________________________________
None
613 training examples for iteration 0
Epoch 1/10

  1/128 [..............................] - ETA: 1:06:10 - loss: 0.3242 - acc: 0.5625
  2/128 [..............................] - ETA: 32:58 - loss: 0.2429 - acc: 0.6875  
…
