Using TensorFlow backend.
2018-09-28 17:26:50.853417: I tensorflow/core/platform/cpu_feature_guard.cc:141] Your CPU supports instructions that this TensorFlow binary was not compiled to use: AVX2 FMA
_________________________________________________________________
Layer (type)                 Output Shape              Param #   
=================================================================
batch_normalization_1 (Batch (None, 10, 35, 1)         4         
_________________________________________________________________
conv2d_1 (Conv2D)            (None, 4, 17, 8)          80        
_________________________________________________________________
conv2d_2 (Conv2D)            (None, 2, 8, 8)           264       
_________________________________________________________________
flatten_1 (Flatten)          (None, 128)               0         
_________________________________________________________________
dense_1 (Dense)              (None, 8)                 1032      
_________________________________________________________________
dense_2 (Dense)              (None, 1)                 9         
=================================================================
Total params: 1,389
Trainable params: 1,387
Non-trainable params: 2
_________________________________________________________________
None
Train on 3304 samples, validate on 2000 samples
Epoch 1/1
3304/3304 [==============================] - 1s 328us/step - loss: 0.4252 - acc: 0.8275 - val_loss: 0.2623 - val_acc: 0.9250
Number of true positives for validation data: 0
…
