…
2018-07-09 21:04:08.817991: I tensorflow/core/common_runtime/gpu/gpu_device.cc:1053] Created TensorFlow device (/job:localhost/replica:0/task:0/device:GPU:0 with 11248 MB memory) -> physical GPU (device: 0, name: Tesla P100-PCIE-12GB, pci bus id: 0000:04:00.0, compute capability: 6.0)
2018-07-09 21:04:09.104520: I tensorflow/core/common_runtime/process_util.cc:63] Creating new thread pool with default inter op setting: 2. Tune using inter_op_parallelism_threads for best performance.
__________________________________________________________________________________________________
Layer (type)                    Output Shape         Param #     Connected to                     
==================================================================================================
input_1 (InputLayer)            (None, 100000, 2)    0                                            
__________________________________________________________________________________________________
batch_normalization_1 (BatchNor (None, 100000, 2)    8           input_1[0][0]                    
__________________________________________________________________________________________________
conv1d_1 (Conv1D)               (None, 25000, 48)    7728        batch_normalization_1[0][0]      
__________________________________________________________________________________________________
max_pooling1d_1 (MaxPooling1D)  (None, 4166, 48)     0           conv1d_1[0][0]                   
__________________________________________________________________________________________________
batch_normalization_2 (BatchNor (None, 4166, 48)     192         max_pooling1d_1[0][0]            
__________________________________________________________________________________________________
conv1d_2 (Conv1D)               (None, 4166, 48)     6960        batch_normalization_2[0][0]      
__________________________________________________________________________________________________
add_1 (Add)                     (None, 4166, 48)     0           batch_normalization_2[0][0]      
                                                                 conv1d_2[0][0]                   
__________________________________________________________________________________________________
batch_normalization_3 (BatchNor (None, 4166, 48)     192         add_1[0][0]                      
__________________________________________________________________________________________________
conv1d_3 (Conv1D)               (None, 4166, 48)     6960        batch_normalization_3[0][0]      
__________________________________________________________________________________________________
add_2 (Add)                     (None, 4166, 48)     0           batch_normalization_3[0][0]      
                                                                 conv1d_3[0][0]                   
__________________________________________________________________________________________________
batch_normalization_4 (BatchNor (None, 4166, 48)     192         add_2[0][0]                      
__________________________________________________________________________________________________
conv1d_4 (Conv1D)               (None, 4166, 48)     6960        batch_normalization_4[0][0]      
__________________________________________________________________________________________________
add_3 (Add)                     (None, 4166, 48)     0           batch_normalization_4[0][0]      
                                                                 conv1d_4[0][0]                   
__________________________________________________________________________________________________
batch_normalization_5 (BatchNor (None, 4166, 48)     192         add_3[0][0]                      
__________________________________________________________________________________________________
max_pooling1d_2 (MaxPooling1D)  (None, 694, 48)      0           batch_normalization_5[0][0]      
__________________________________________________________________________________________________
batch_normalization_6 (BatchNor (None, 694, 48)      192         max_pooling1d_2[0][0]            
__________________________________________________________________________________________________
conv1d_5 (Conv1D)               (None, 694, 96)      13920       batch_normalization_6[0][0]      
__________________________________________________________________________________________________
batch_normalization_7 (BatchNor (None, 694, 96)      384         conv1d_5[0][0]                   
__________________________________________________________________________________________________
conv1d_6 (Conv1D)               (None, 694, 96)      27744       batch_normalization_7[0][0]      
__________________________________________________________________________________________________
add_4 (Add)                     (None, 694, 96)      0           batch_normalization_7[0][0]      
                                                                 conv1d_6[0][0]                   
__________________________________________________________________________________________________
batch_normalization_8 (BatchNor (None, 694, 96)      384         add_4[0][0]                      
__________________________________________________________________________________________________
conv1d_7 (Conv1D)               (None, 694, 96)      27744       batch_normalization_8[0][0]      
__________________________________________________________________________________________________
add_5 (Add)                     (None, 694, 96)      0           batch_normalization_8[0][0]      
                                                                 conv1d_7[0][0]                   
__________________________________________________________________________________________________
batch_normalization_9 (BatchNor (None, 694, 96)      384         add_5[0][0]                      
__________________________________________________________________________________________________
conv1d_8 (Conv1D)               (None, 694, 96)      27744       batch_normalization_9[0][0]      
__________________________________________________________________________________________________
add_6 (Add)                     (None, 694, 96)      0           batch_normalization_9[0][0]      
                                                                 conv1d_8[0][0]                   
__________________________________________________________________________________________________
batch_normalization_10 (BatchNo (None, 694, 96)      384         add_6[0][0]                      
__________________________________________________________________________________________________
max_pooling1d_3 (MaxPooling1D)  (None, 115, 96)      0           batch_normalization_10[0][0]     
__________________________________________________________________________________________________
batch_normalization_11 (BatchNo (None, 115, 96)      384         max_pooling1d_3[0][0]            
__________________________________________________________________________________________________
conv1d_9 (Conv1D)               (None, 115, 192)     55488       batch_normalization_11[0][0]     
__________________________________________________________________________________________________
batch_normalization_12 (BatchNo (None, 115, 192)     768         conv1d_9[0][0]                   
__________________________________________________________________________________________________
conv1d_10 (Conv1D)              (None, 115, 192)     110784      batch_normalization_12[0][0]     
__________________________________________________________________________________________________
add_7 (Add)                     (None, 115, 192)     0           batch_normalization_12[0][0]     
                                                                 conv1d_10[0][0]                  
__________________________________________________________________________________________________
batch_normalization_13 (BatchNo (None, 115, 192)     768         add_7[0][0]                      
__________________________________________________________________________________________________
conv1d_11 (Conv1D)              (None, 115, 192)     110784      batch_normalization_13[0][0]     
__________________________________________________________________________________________________
add_8 (Add)                     (None, 115, 192)     0           batch_normalization_13[0][0]     
                                                                 conv1d_11[0][0]                  
__________________________________________________________________________________________________
batch_normalization_14 (BatchNo (None, 115, 192)     768         add_8[0][0]                      
__________________________________________________________________________________________________
conv1d_12 (Conv1D)              (None, 115, 192)     110784      batch_normalization_14[0][0]     
__________________________________________________________________________________________________
add_9 (Add)                     (None, 115, 192)     0           batch_normalization_14[0][0]     
                                                                 conv1d_12[0][0]                  
__________________________________________________________________________________________________
batch_normalization_15 (BatchNo (None, 115, 192)     768         add_9[0][0]                      
__________________________________________________________________________________________________
conv1d_13 (Conv1D)              (None, 115, 192)     110784      batch_normalization_15[0][0]     
__________________________________________________________________________________________________
add_10 (Add)                    (None, 115, 192)     0           batch_normalization_15[0][0]     
                                                                 conv1d_13[0][0]                  
__________________________________________________________________________________________________
batch_normalization_16 (BatchNo (None, 115, 192)     768         add_10[0][0]                     
__________________________________________________________________________________________________
conv1d_14 (Conv1D)              (None, 115, 192)     110784      batch_normalization_16[0][0]     
__________________________________________________________________________________________________
add_11 (Add)                    (None, 115, 192)     0           batch_normalization_16[0][0]     
                                                                 conv1d_14[0][0]                  
__________________________________________________________________________________________________
batch_normalization_17 (BatchNo (None, 115, 192)     768         add_11[0][0]                     
__________________________________________________________________________________________________
max_pooling1d_4 (MaxPooling1D)  (None, 19, 192)      0           batch_normalization_17[0][0]     
__________________________________________________________________________________________________
batch_normalization_18 (BatchNo (None, 19, 192)      768         max_pooling1d_4[0][0]            
__________________________________________________________________________________________________
conv1d_15 (Conv1D)              (None, 19, 384)      221568      batch_normalization_18[0][0]     
__________________________________________________________________________________________________
batch_normalization_19 (BatchNo (None, 19, 384)      1536        conv1d_15[0][0]                  
__________________________________________________________________________________________________
conv1d_16 (Conv1D)              (None, 19, 384)      442752      batch_normalization_19[0][0]     
__________________________________________________________________________________________________
add_12 (Add)                    (None, 19, 384)      0           batch_normalization_19[0][0]     
                                                                 conv1d_16[0][0]                  
__________________________________________________________________________________________________
batch_normalization_20 (BatchNo (None, 19, 384)      1536        add_12[0][0]                     
__________________________________________________________________________________________________
conv1d_17 (Conv1D)              (None, 19, 384)      442752      batch_normalization_20[0][0]     
__________________________________________________________________________________________________
add_13 (Add)                    (None, 19, 384)      0           batch_normalization_20[0][0]     
                                                                 conv1d_17[0][0]                  
__________________________________________________________________________________________________
batch_normalization_21 (BatchNo (None, 19, 384)      1536        add_13[0][0]                     
__________________________________________________________________________________________________
flatten_1 (Flatten)             (None, 7296)         0           batch_normalization_21[0][0]     
__________________________________________________________________________________________________
dense_1 (Dense)                 (None, 1)            7297        flatten_1[0][0]                  
==================================================================================================
Total params: 1,862,409
Trainable params: 1,855,973
Non-trainable params: 6,436
__________________________________________________________________________________________________
None
Epoch 1/1

  1/128 [..............................] - ETA: 2:00:30 - loss: 0.3491 - acc: 0.5000
…
