…
2018-07-07 19:23:27.219437: I tensorflow/core/common_runtime/gpu/gpu_device.cc:1053] Created TensorFlow device (/job:localhost/replica:0/task:0/device:GPU:0 with 11248 MB memory) -> physical GPU (device: 0, name: Tesla P100-PCIE-12GB, pci bus id: 0000:04:00.0, compute capability: 6.0)
2018-07-07 19:23:27.453165: I tensorflow/core/common_runtime/process_util.cc:63] Creating new thread pool with default inter op setting: 2. Tune using inter_op_parallelism_threads for best performance.
_________________________________________________________________
Layer (type)                 Output Shape              Param #   
=================================================================
batch_normalization_1 (Batch (None, 250000, 2)         8         
_________________________________________________________________
conv1d_1 (Conv1D)            (None, 62481, 48)         7728      
_________________________________________________________________
max_pooling1d_1 (MaxPooling1 (None, 7810, 48)          0         
_________________________________________________________________
batch_normalization_2 (Batch (None, 7810, 48)          192       
_________________________________________________________________
conv1d_2 (Conv1D)            (None, 7808, 48)          6960      
_________________________________________________________________
batch_normalization_3 (Batch (None, 7808, 48)          192       
_________________________________________________________________
conv1d_3 (Conv1D)            (None, 7806, 48)          6960      
_________________________________________________________________
batch_normalization_4 (Batch (None, 7806, 48)          192       
_________________________________________________________________
conv1d_4 (Conv1D)            (None, 7804, 48)          6960      
_________________________________________________________________
batch_normalization_5 (Batch (None, 7804, 48)          192       
_________________________________________________________________
max_pooling1d_2 (MaxPooling1 (None, 975, 48)           0         
_________________________________________________________________
batch_normalization_6 (Batch (None, 975, 48)           192       
_________________________________________________________________
conv1d_5 (Conv1D)            (None, 973, 96)           13920     
_________________________________________________________________
batch_normalization_7 (Batch (None, 973, 96)           384       
_________________________________________________________________
conv1d_6 (Conv1D)            (None, 971, 96)           27744     
_________________________________________________________________
batch_normalization_8 (Batch (None, 971, 96)           384       
_________________________________________________________________
conv1d_7 (Conv1D)            (None, 969, 96)           27744     
_________________________________________________________________
batch_normalization_9 (Batch (None, 969, 96)           384       
_________________________________________________________________
conv1d_8 (Conv1D)            (None, 967, 96)           27744     
_________________________________________________________________
batch_normalization_10 (Batc (None, 967, 96)           384       
_________________________________________________________________
max_pooling1d_3 (MaxPooling1 (None, 120, 96)           0         
_________________________________________________________________
batch_normalization_11 (Batc (None, 120, 96)           384       
_________________________________________________________________
conv1d_9 (Conv1D)            (None, 118, 192)          55488     
_________________________________________________________________
batch_normalization_12 (Batc (None, 118, 192)          768       
_________________________________________________________________
conv1d_10 (Conv1D)           (None, 116, 192)          110784    
_________________________________________________________________
batch_normalization_13 (Batc (None, 116, 192)          768       
_________________________________________________________________
conv1d_11 (Conv1D)           (None, 114, 192)          110784    
_________________________________________________________________
batch_normalization_14 (Batc (None, 114, 192)          768       
_________________________________________________________________
conv1d_12 (Conv1D)           (None, 112, 192)          110784    
_________________________________________________________________
batch_normalization_15 (Batc (None, 112, 192)          768       
_________________________________________________________________
conv1d_13 (Conv1D)           (None, 110, 192)          110784    
_________________________________________________________________
batch_normalization_16 (Batc (None, 110, 192)          768       
_________________________________________________________________
conv1d_14 (Conv1D)           (None, 108, 192)          110784    
_________________________________________________________________
batch_normalization_17 (Batc (None, 108, 192)          768       
_________________________________________________________________
max_pooling1d_4 (MaxPooling1 (None, 13, 192)           0         
_________________________________________________________________
batch_normalization_18 (Batc (None, 13, 192)           768       
_________________________________________________________________
conv1d_15 (Conv1D)           (None, 11, 384)           221568    
_________________________________________________________________
batch_normalization_19 (Batc (None, 11, 384)           1536      
_________________________________________________________________
conv1d_16 (Conv1D)           (None, 9, 384)            442752    
_________________________________________________________________
batch_normalization_20 (Batc (None, 9, 384)            1536      
_________________________________________________________________
conv1d_17 (Conv1D)           (None, 7, 384)            442752    
_________________________________________________________________
batch_normalization_21 (Batc (None, 7, 384)            1536      
_________________________________________________________________
flatten_1 (Flatten)          (None, 2688)              0         
_________________________________________________________________
dense_1 (Dense)              (None, 1)                 2689      
=================================================================
Total params: 1,857,801
Trainable params: 1,851,365
Non-trainable params: 6,436
_________________________________________________________________
None
Epoch 1/1

  1/128 [..............................] - ETA: 1:53:22 - loss: 1.1453 - acc: 0.3750
  2/128 [..............................] - ETA: 56:27 - loss: 1.0297 - acc: 0.5938  
…
