Using TensorFlow backend.
_________________________________________________________________
Layer (type)                 Output Shape              Param #   
=================================================================
input_1 (InputLayer)         (None, 100002)            0         
_________________________________________________________________
batch_normalization_1 (Batch (None, 100002)            400008    
_________________________________________________________________
dense_1 (Dense)              (None, 24)                2400072   
_________________________________________________________________
dropout_1 (Dropout)          (None, 24)                0         
_________________________________________________________________
dense_2 (Dense)              (None, 12)                300       
_________________________________________________________________
dropout_2 (Dropout)          (None, 12)                0         
_________________________________________________________________
dense_3 (Dense)              (None, 8)                 104       
_________________________________________________________________
dropout_3 (Dropout)          (None, 8)                 0         
_________________________________________________________________
dense_4 (Dense)              (None, 1)                 9         
=================================================================
Total params: 2,800,493
Trainable params: 2,600,489
Non-trainable params: 200,004
_________________________________________________________________
None
Train on 495 samples, validate on 128 samples
Epoch 1/1
2018-08-01 15:21:53.386650: I tensorflow/core/platform/cpu_feature_guard.cc:141] Your CPU supports instructions that this TensorFlow binary was not compiled to use: AVX2 FMA
…
