/usr/local/lib/python3.6/site-packages/h5py/__init__.py:36: FutureWarning: Conversion of the second argument of issubdtype from `float` to `np.floating` is deprecated. In future, it will be treated as `np.float64 == np.dtype(float).type`.
  from ._conv import register_converters as _register_converters
Using TensorFlow backend.
_________________________________________________________________
Layer (type)                 Output Shape              Param #
=================================================================
batch_normalization_1 (Batch (None, 19)                76
_________________________________________________________________
dense_1 (Dense)              (None, 12)                240
_________________________________________________________________
dropout_1 (Dropout)          (None, 12)                0
_________________________________________________________________
dense_2 (Dense)              (None, 8)                 104
_________________________________________________________________
dropout_2 (Dropout)          (None, 8)                 0
_________________________________________________________________
dense_3 (Dense)              (None, 1)                 9
=================================================================
Total params: 429
Trainable params: 391
Non-trainable params: 38
_________________________________________________________________
None
128 training examples for iteration 0
Train on 128 samples, validate on 128 samples
Epoch 1/30
2018-07-24 11:44:20.013818: I tensorflow/core/platform/cpu_feature_guard.cc:141] Your CPU supports instructions that this TensorFlow binary was not compiled to use: AVX2 FMA
…
