…
2018-07-06 14:03:21.632450: I tensorflow/core/common_runtime/gpu/gpu_device.cc:1053] Created TensorFlow device (/job:localhost/replica:0/task:0/device:GPU:0 with 11248 MB memory) -> physical GPU (device: 0, name: Tesla P100-PCIE-12GB, pci bus id: 0000:04:00.0, compute capability: 6.0)
2018-07-06 14:03:21.854261: I tensorflow/core/common_runtime/process_util.cc:63] Creating new thread pool with default inter op setting: 2. Tune using inter_op_parallelism_threads for best performance.
_________________________________________________________________
Layer (type)                 Output Shape              Param #   
=================================================================
batch_normalization_1 (Batch (None, 250000, 2)         8         
_________________________________________________________________
conv1d_1 (Conv1D)            (None, 62481, 48)         7728      
_________________________________________________________________
max_pooling1d_1 (MaxPooling1 (None, 10413, 48)         0         
_________________________________________________________________
batch_normalization_2 (Batch (None, 10413, 48)         192       
_________________________________________________________________
conv1d_2 (Conv1D)            (None, 10411, 48)         6960      
_________________________________________________________________
batch_normalization_3 (Batch (None, 10411, 48)         192       
_________________________________________________________________
conv1d_3 (Conv1D)            (None, 10409, 48)         6960      
_________________________________________________________________
batch_normalization_4 (Batch (None, 10409, 48)         192       
_________________________________________________________________
conv1d_4 (Conv1D)            (None, 10407, 48)         6960      
_________________________________________________________________
batch_normalization_5 (Batch (None, 10407, 48)         192       
_________________________________________________________________
max_pooling1d_2 (MaxPooling1 (None, 1734, 48)          0         
_________________________________________________________________
batch_normalization_6 (Batch (None, 1734, 48)          192       
_________________________________________________________________
conv1d_5 (Conv1D)            (None, 1732, 96)          13920     
_________________________________________________________________
batch_normalization_7 (Batch (None, 1732, 96)          384       
_________________________________________________________________
conv1d_6 (Conv1D)            (None, 1730, 96)          27744     
_________________________________________________________________
batch_normalization_8 (Batch (None, 1730, 96)          384       
_________________________________________________________________
conv1d_7 (Conv1D)            (None, 1728, 96)          27744     
_________________________________________________________________
batch_normalization_9 (Batch (None, 1728, 96)          384       
_________________________________________________________________
conv1d_8 (Conv1D)            (None, 1726, 96)          27744     
_________________________________________________________________
batch_normalization_10 (Batc (None, 1726, 96)          384       
_________________________________________________________________
max_pooling1d_3 (MaxPooling1 (None, 287, 96)           0         
_________________________________________________________________
batch_normalization_11 (Batc (None, 287, 96)           384       
_________________________________________________________________
conv1d_9 (Conv1D)            (None, 285, 192)          55488     
_________________________________________________________________
batch_normalization_12 (Batc (None, 285, 192)          768       
_________________________________________________________________
conv1d_10 (Conv1D)           (None, 283, 192)          110784    
_________________________________________________________________
batch_normalization_13 (Batc (None, 283, 192)          768       
_________________________________________________________________
conv1d_11 (Conv1D)           (None, 281, 192)          110784    
_________________________________________________________________
batch_normalization_14 (Batc (None, 281, 192)          768       
_________________________________________________________________
conv1d_12 (Conv1D)           (None, 279, 192)          110784    
_________________________________________________________________
batch_normalization_15 (Batc (None, 279, 192)          768       
_________________________________________________________________
conv1d_13 (Conv1D)           (None, 277, 192)          110784    
_________________________________________________________________
batch_normalization_16 (Batc (None, 277, 192)          768       
_________________________________________________________________
conv1d_14 (Conv1D)           (None, 275, 192)          110784    
_________________________________________________________________
batch_normalization_17 (Batc (None, 275, 192)          768       
_________________________________________________________________
max_pooling1d_4 (MaxPooling1 (None, 45, 192)           0         
_________________________________________________________________
batch_normalization_18 (Batc (None, 45, 192)           768       
_________________________________________________________________
conv1d_15 (Conv1D)           (None, 43, 384)           221568    
_________________________________________________________________
batch_normalization_19 (Batc (None, 43, 384)           1536      
_________________________________________________________________
conv1d_16 (Conv1D)           (None, 41, 384)           442752    
_________________________________________________________________
batch_normalization_20 (Batc (None, 41, 384)           1536      
_________________________________________________________________
conv1d_17 (Conv1D)           (None, 39, 384)           442752    
_________________________________________________________________
batch_normalization_21 (Batc (None, 39, 384)           1536      
_________________________________________________________________
reshape_1 (Reshape)          (None, 14976, 1)          0         
_________________________________________________________________
global_average_pooling1d_1 ( (None, 1)                 0         
_________________________________________________________________
activation_1 (Activation)    (None, 1)                 0         
=================================================================
Total params: 1,855,112
Trainable params: 1,848,676
Non-trainable params: 6,436
_________________________________________________________________
None
Epoch 1/1

  1/128 [..............................] - ETA: 1:46:47 - loss: 0.2489 - acc: 0.5625
  2/128 [..............................] - ETA: 53:14 - loss: 0.2405 - acc: 0.6875  
…
