Using TensorFlow backend.
/usr/lib/python3.6/importlib/_bootstrap.py:219: RuntimeWarning: numpy.dtype size changed, may indicate binary incompatibility. Expected 96, got 88
  return f(*args, **kwds)
_________________________________________________________________
Layer (type)                 Output Shape              Param #   
=================================================================
batch_normalization_1 (Batch (None, 255)               1020      
_________________________________________________________________
dense_1 (Dense)              (None, 24)                6144      
_________________________________________________________________
dropout_1 (Dropout)          (None, 24)                0         
_________________________________________________________________
dense_2 (Dense)              (None, 12)                300       
_________________________________________________________________
dropout_2 (Dropout)          (None, 12)                0         
_________________________________________________________________
dense_3 (Dense)              (None, 6)                 78        
_________________________________________________________________
dropout_3 (Dropout)          (None, 6)                 0         
_________________________________________________________________
dense_4 (Dense)              (None, 1)                 7         
=================================================================
Total params: 7,549
Trainable params: 7,039
Non-trainable params: 510
_________________________________________________________________
None
Epoch 0
Train on 2804 samples, validate on 500 samples
Epoch 1/1
2018-10-27 10:48:26.509900: I tensorflow/core/platform/cpu_feature_guard.cc:140] Your CPU supports instructions that this TensorFlow binary was not compiled to use: AVX2 FMA
…
