…
2018-06-29 11:25:36.357093: I tensorflow/core/common_runtime/gpu/gpu_device.cc:1053] Created TensorFlow device (/job:localhost/replica:0/task:0/device:GPU:0 with 11248 MB memory) -> physical GPU (device: 0, name: Tesla P100-PCIE-12GB, pci bus id: 0000:04:00.0, compute capability: 6.0)
2018-06-29 11:25:36.654151: I tensorflow/core/common_runtime/process_util.cc:63] Creating new thread pool with default inter op setting: 2. Tune using inter_op_parallelism_threads for best performance.
_________________________________________________________________
Layer (type)                 Output Shape              Param #   
=================================================================
conv1d_1 (Conv1D)            (None, 31249, 16)         528       
_________________________________________________________________
dropout_1 (Dropout)          (None, 31249, 16)         0         
_________________________________________________________________
conv1d_2 (Conv1D)            (None, 5207, 32)          6176      
_________________________________________________________________
dropout_2 (Dropout)          (None, 5207, 32)          0         
_________________________________________________________________
conv1d_3 (Conv1D)            (None, 1300, 64)          16448     
_________________________________________________________________
dropout_3 (Dropout)          (None, 1300, 64)          0         
_________________________________________________________________
flatten_1 (Flatten)          (None, 83200)             0         
_________________________________________________________________
dense_1 (Dense)              (None, 64)                5324864   
_________________________________________________________________
dropout_4 (Dropout)          (None, 64)                0         
_________________________________________________________________
dense_2 (Dense)              (None, 16)                1040      
_________________________________________________________________
dropout_5 (Dropout)          (None, 16)                0         
_________________________________________________________________
dense_3 (Dense)              (None, 1)                 17        
=================================================================
Total params: 5,349,073
Trainable params: 5,349,073
Non-trainable params: 0
_________________________________________________________________
None
Epoch 1/20
File /home/brendonm/projects/rrg-kenclark/pico/30l-16-data/20170216_2/4/fastDAQ_0.bin could not be loaded

  1/128 [..............................] - ETA: 1:48:19 - loss: 3.3602 - acc: 0.2500
…
