_________________________________________________________________
Layer (type)                 Output Shape              Param #   
=================================================================
batch_normalization_1 (Batch (None, 51)                204       
_________________________________________________________________
dense_1 (Dense)              (None, 12)                624       
_________________________________________________________________
dropout_1 (Dropout)          (None, 12)                0         
_________________________________________________________________
dense_2 (Dense)              (None, 8)                 104       
_________________________________________________________________
dropout_2 (Dropout)          (None, 8)                 0         
_________________________________________________________________
dense_3 (Dense)              (None, 1)                 9         
=================================================================
Total params: 941
Trainable params: 839
Non-trainable params: 102
_________________________________________________________________
None
Train on 496 samples, validate on 128 samples
Epoch 1/1

 32/496 [>.............................] - ETA: 7s - loss: 0.1809 - acc: 0.1562
496/496 [==============================] - 1s 1ms/step - loss: 0.2020 - acc: 0.1391 - val_loss: 0.3365 - val_acc: 0.5938
…
