…
File /home/brendonm/projects/rrg-kenclark/pico/30l-16-data/20161205_3/2/fastDAQ_0.bin could not be loaded
File /home/brendonm/projects/rrg-kenclark/pico/30l-16-data/20160902_0/20160902_0/20/fastDAQ_0.bin is missing piezo 3 and/or 7
File /home/brendonm/projects/rrg-kenclark/pico/30l-16-data/20160902_0/20160902_0/20/fastDAQ_0.bin is missing piezo 3 and/or 7
__________________________________________________________________________________________________
Layer (type)                    Output Shape         Param #     Connected to                     
==================================================================================================
input_1 (InputLayer)            (None, 100000, 2)    0                                            
__________________________________________________________________________________________________
batch_normalization_1 (BatchNor (None, 100000, 2)    8           input_1[0][0]                    
__________________________________________________________________________________________________
conv1d_1 (Conv1D)               (None, 24981, 48)    7728        batch_normalization_1[0][0]      
__________________________________________________________________________________________________
max_pooling1d_1 (MaxPooling1D)  (None, 4163, 48)     0           conv1d_1[0][0]                   
__________________________________________________________________________________________________
batch_normalization_2 (BatchNor (None, 4163, 48)     192         max_pooling1d_1[0][0]            
__________________________________________________________________________________________________
conv1d_2 (Conv1D)               (None, 4161, 48)     6960        batch_normalization_2[0][0]      
__________________________________________________________________________________________________
batch_normalization_3 (BatchNor (None, 4161, 48)     192         conv1d_2[0][0]                   
__________________________________________________________________________________________________
conv1d_3 (Conv1D)               (None, 4159, 48)     6960        batch_normalization_3[0][0]      
__________________________________________________________________________________________________
batch_normalization_4 (BatchNor (None, 4159, 48)     192         conv1d_3[0][0]                   
__________________________________________________________________________________________________
conv1d_4 (Conv1D)               (None, 4157, 48)     6960        batch_normalization_4[0][0]      
__________________________________________________________________________________________________
batch_normalization_5 (BatchNor (None, 4157, 48)     192         conv1d_4[0][0]                   
__________________________________________________________________________________________________
max_pooling1d_2 (MaxPooling1D)  (None, 692, 48)      0           batch_normalization_5[0][0]      
__________________________________________________________________________________________________
batch_normalization_6 (BatchNor (None, 692, 48)      192         max_pooling1d_2[0][0]            
__________________________________________________________________________________________________
conv1d_5 (Conv1D)               (None, 690, 96)      13920       batch_normalization_6[0][0]      
__________________________________________________________________________________________________
batch_normalization_7 (BatchNor (None, 690, 96)      384         conv1d_5[0][0]                   
__________________________________________________________________________________________________
conv1d_6 (Conv1D)               (None, 688, 96)      27744       batch_normalization_7[0][0]      
__________________________________________________________________________________________________
batch_normalization_8 (BatchNor (None, 688, 96)      384         conv1d_6[0][0]                   
__________________________________________________________________________________________________
conv1d_7 (Conv1D)               (None, 686, 96)      27744       batch_normalization_8[0][0]      
__________________________________________________________________________________________________
batch_normalization_9 (BatchNor (None, 686, 96)      384         conv1d_7[0][0]                   
__________________________________________________________________________________________________
conv1d_8 (Conv1D)               (None, 684, 96)      27744       batch_normalization_9[0][0]      
__________________________________________________________________________________________________
batch_normalization_10 (BatchNo (None, 684, 96)      384         conv1d_8[0][0]                   
__________________________________________________________________________________________________
max_pooling1d_3 (MaxPooling1D)  (None, 114, 96)      0           batch_normalization_10[0][0]     
__________________________________________________________________________________________________
batch_normalization_11 (BatchNo (None, 114, 96)      384         max_pooling1d_3[0][0]            
__________________________________________________________________________________________________
conv1d_9 (Conv1D)               (None, 112, 192)     55488       batch_normalization_11[0][0]     
__________________________________________________________________________________________________
batch_normalization_12 (BatchNo (None, 112, 192)     768         conv1d_9[0][0]                   
__________________________________________________________________________________________________
conv1d_10 (Conv1D)              (None, 110, 192)     110784      batch_normalization_12[0][0]     
__________________________________________________________________________________________________
batch_normalization_13 (BatchNo (None, 110, 192)     768         conv1d_10[0][0]                  
__________________________________________________________________________________________________
conv1d_11 (Conv1D)              (None, 108, 192)     110784      batch_normalization_13[0][0]     
__________________________________________________________________________________________________
batch_normalization_14 (BatchNo (None, 108, 192)     768         conv1d_11[0][0]                  
__________________________________________________________________________________________________
conv1d_12 (Conv1D)              (None, 106, 192)     110784      batch_normalization_14[0][0]     
__________________________________________________________________________________________________
batch_normalization_15 (BatchNo (None, 106, 192)     768         conv1d_12[0][0]                  
__________________________________________________________________________________________________
conv1d_13 (Conv1D)              (None, 104, 192)     110784      batch_normalization_15[0][0]     
__________________________________________________________________________________________________
batch_normalization_16 (BatchNo (None, 104, 192)     768         conv1d_13[0][0]                  
__________________________________________________________________________________________________
conv1d_14 (Conv1D)              (None, 102, 192)     110784      batch_normalization_16[0][0]     
__________________________________________________________________________________________________
batch_normalization_17 (BatchNo (None, 102, 192)     768         conv1d_14[0][0]                  
__________________________________________________________________________________________________
max_pooling1d_4 (MaxPooling1D)  (None, 17, 192)      0           batch_normalization_17[0][0]     
__________________________________________________________________________________________________
batch_normalization_18 (BatchNo (None, 17, 192)      768         max_pooling1d_4[0][0]            
__________________________________________________________________________________________________
conv1d_15 (Conv1D)              (None, 15, 384)      221568      batch_normalization_18[0][0]     
__________________________________________________________________________________________________
batch_normalization_19 (BatchNo (None, 15, 384)      1536        conv1d_15[0][0]                  
__________________________________________________________________________________________________
conv1d_16 (Conv1D)              (None, 13, 384)      442752      batch_normalization_19[0][0]     
__________________________________________________________________________________________________
batch_normalization_20 (BatchNo (None, 13, 384)      1536        conv1d_16[0][0]                  
__________________________________________________________________________________________________
conv1d_17 (Conv1D)              (None, 11, 384)      442752      batch_normalization_20[0][0]     
__________________________________________________________________________________________________
batch_normalization_21 (BatchNo (None, 11, 384)      1536        conv1d_17[0][0]                  
__________________________________________________________________________________________________
flatten_1 (Flatten)             (None, 4224)         0           batch_normalization_21[0][0]     
__________________________________________________________________________________________________
input_2 (InputLayer)            (None, 3)            0                                            
__________________________________________________________________________________________________
concatenate_1 (Concatenate)     (None, 4227)         0           flatten_1[0][0]                  
                                                                 input_2[0][0]                    
__________________________________________________________________________________________________
batch_normalization_22 (BatchNo (None, 4227)         16908       concatenate_1[0][0]              
__________________________________________________________________________________________________
dense_1 (Dense)                 (None, 64)           270592      batch_normalization_22[0][0]     
__________________________________________________________________________________________________
batch_normalization_23 (BatchNo (None, 64)           256         dense_1[0][0]                    
__________________________________________________________________________________________________
dense_2 (Dense)                 (None, 16)           1040        batch_normalization_23[0][0]     
__________________________________________________________________________________________________
batch_normalization_24 (BatchNo (None, 16)           64          dense_2[0][0]                    
__________________________________________________________________________________________________
dense_3 (Dense)                 (None, 1)            17          batch_normalization_24[0][0]     
==================================================================================================
Total params: 2,143,989
Trainable params: 2,128,939
Non-trainable params: 15,050
__________________________________________________________________________________________________
None
Epoch 1/1

   4/3039 [..............................] - ETA: 3:02:32 - loss: 0.8813 - acc: 1.0000
…
