…
2018-07-10 10:25:12.083706: I tensorflow/core/common_runtime/gpu/gpu_device.cc:1053] Created TensorFlow device (/job:localhost/replica:0/task:0/device:GPU:0 with 11248 MB memory) -> physical GPU (device: 0, name: Tesla P100-PCIE-12GB, pci bus id: 0000:04:00.0, compute capability: 6.0)
2018-07-10 10:25:12.375180: I tensorflow/core/common_runtime/process_util.cc:63] Creating new thread pool with default inter op setting: 2. Tune using inter_op_parallelism_threads for best performance.
_________________________________________________________________
Layer (type)                 Output Shape              Param #   
=================================================================
dropout_1 (Dropout)          (None, 32768)             0         
_________________________________________________________________
dense_1 (Dense)              (None, 64)                2097216   
_________________________________________________________________
dropout_2 (Dropout)          (None, 64)                0         
_________________________________________________________________
dense_2 (Dense)              (None, 32)                2080      
_________________________________________________________________
dropout_3 (Dropout)          (None, 32)                0         
_________________________________________________________________
dense_3 (Dense)              (None, 16)                528       
_________________________________________________________________
dropout_4 (Dropout)          (None, 16)                0         
_________________________________________________________________
dense_4 (Dense)              (None, 8)                 136       
_________________________________________________________________
dropout_5 (Dropout)          (None, 8)                 0         
_________________________________________________________________
dense_5 (Dense)              (None, 1)                 9         
=================================================================
Total params: 2,099,969
Trainable params: 2,099,969
Non-trainable params: 0
_________________________________________________________________
None
Epoch 1/1

  1/128 [..............................] - ETA: 4:58:19 - loss: 0.4600 - acc: 0.5312
  2/128 [..............................] - ETA: 2:30:06 - loss: 0.4328 - acc: 0.5781
…
