Using TensorFlow backend.
_________________________________________________________________
Layer (type)                 Output Shape              Param #   
=================================================================
batch_normalization_1 (Batch (None, 16)                64        
_________________________________________________________________
dense_1 (Dense)              (None, 12)                204       
_________________________________________________________________
dropout_1 (Dropout)          (None, 12)                0         
_________________________________________________________________
dense_2 (Dense)              (None, 9)                 117       
_________________________________________________________________
dropout_2 (Dropout)          (None, 9)                 0         
_________________________________________________________________
dense_3 (Dense)              (None, 6)                 60        
_________________________________________________________________
dense_4 (Dense)              (None, 3)                 21        
_________________________________________________________________
dense_5 (Dense)              (None, 2)                 8         
_________________________________________________________________
dense_6 (Dense)              (None, 1)                 3         
=================================================================
Total params: 477
Trainable params: 445
Non-trainable params: 32
_________________________________________________________________
None
Train on 43 samples, validate on 8 samples
Epoch 1/1000
2018-08-09 09:42:38.797009: I tensorflow/core/platform/cpu_feature_guard.cc:141] Your CPU supports instructions that this TensorFlow binary was not compiled to use: AVX2 FMA
…
