…
2018-06-29 17:24:22.427603: I tensorflow/core/common_runtime/gpu/gpu_device.cc:1053] Created TensorFlow device (/job:localhost/replica:0/task:0/device:GPU:0 with 11248 MB memory) -> physical GPU (device: 0, name: Tesla P100-PCIE-12GB, pci bus id: 0000:04:00.0, compute capability: 6.0)
2018-06-29 17:24:22.607047: I tensorflow/core/common_runtime/process_util.cc:63] Creating new thread pool with default inter op setting: 2. Tune using inter_op_parallelism_threads for best performance.
_________________________________________________________________
Layer (type)                 Output Shape              Param #   
=================================================================
conv2d_1 (Conv2D)            (None, 24, 24, 16)        272       
_________________________________________________________________
conv2d_2 (Conv2D)            (None, 11, 11, 32)        4640      
_________________________________________________________________
conv2d_3 (Conv2D)            (None, 5, 5, 32)          9248      
_________________________________________________________________
conv2d_4 (Conv2D)            (None, 4, 4, 64)          8256      
_________________________________________________________________
flatten_1 (Flatten)          (None, 1024)              0         
_________________________________________________________________
dense_1 (Dense)              (None, 64)                65600     
_________________________________________________________________
dropout_1 (Dropout)          (None, 64)                0         
_________________________________________________________________
dense_2 (Dense)              (None, 16)                1040      
_________________________________________________________________
dropout_2 (Dropout)          (None, 16)                0         
_________________________________________________________________
dense_3 (Dense)              (None, 1)                 17        
=================================================================
Total params: 89,073
Trainable params: 89,073
Non-trainable params: 0
_________________________________________________________________
None
Epoch 1/1

  1/128 [..............................] - ETA: 1:42:00 - loss: 1.8073 - acc: 0.2812
  7/128 [>.............................] - ETA: 14:11 - loss: 1.0854 - acc: 0.3973  
  8/128 [>.............................] - ETA: 12:37 - loss: 0.9945 - acc: 0.4258
…
