_________________________________________________________________
Layer (type)                 Output Shape              Param #   
=================================================================
batch_normalization_1 (Batch (None, 50, 50, 10)        40        
_________________________________________________________________
conv2d_1 (Conv2D)            (None, 24, 24, 32)        5152      
_________________________________________________________________
conv2d_2 (Conv2D)            (None, 21, 21, 32)        16416     
_________________________________________________________________
conv2d_3 (Conv2D)            (None, 18, 18, 32)        16416     
_________________________________________________________________
conv2d_4 (Conv2D)            (None, 15, 15, 32)        16416     
_________________________________________________________________
conv2d_5 (Conv2D)            (None, 13, 13, 64)        18496     
_________________________________________________________________
conv2d_6 (Conv2D)            (None, 11, 11, 64)        36928     
_________________________________________________________________
conv2d_7 (Conv2D)            (None, 9, 9, 64)          36928     
_________________________________________________________________
conv2d_8 (Conv2D)            (None, 7, 7, 64)          36928     
_________________________________________________________________
conv2d_9 (Conv2D)            (None, 6, 6, 128)         32896     
_________________________________________________________________
conv2d_10 (Conv2D)           (None, 5, 5, 128)         65664     
_________________________________________________________________
conv2d_11 (Conv2D)           (None, 4, 4, 128)         65664     
_________________________________________________________________
conv2d_12 (Conv2D)           (None, 3, 3, 128)         65664     
_________________________________________________________________
flatten_1 (Flatten)          (None, 1152)              0         
_________________________________________________________________
dense_1 (Dense)              (None, 64)                73792     
_________________________________________________________________
dropout_1 (Dropout)          (None, 64)                0         
_________________________________________________________________
dense_2 (Dense)              (None, 16)                1040      
_________________________________________________________________
dropout_2 (Dropout)          (None, 16)                0         
_________________________________________________________________
dense_3 (Dense)              (None, 1)                 17        
=================================================================
Total params: 488,457
Trainable params: 488,437
Non-trainable params: 20
_________________________________________________________________
None
Epoch 1/1

  32/1212 [..............................] - ETA: 27s - loss: 9.8973 - acc: 0.3750
  64/1212 [>.............................] - ETA: 15s - loss: 9.8574 - acc: 0.4219
  96/1212 [=>............................] - ETA: 10s - loss: 9.8138 - acc: 0.4375
…
