Using TensorFlow backend.
2018-09-28 14:23:25.577293: I tensorflow/core/platform/cpu_feature_guard.cc:141] Your CPU supports instructions that this TensorFlow binary was not compiled to use: AVX2 FMA
_________________________________________________________________
Layer (type)                 Output Shape              Param #   
=================================================================
batch_normalization_1 (Batch (None, 10, 35, 1)         4         
_________________________________________________________________
conv2d_1 (Conv2D)            (None, 8, 33, 16)         160       
_________________________________________________________________
conv2d_2 (Conv2D)            (None, 6, 31, 16)         2320      
_________________________________________________________________
conv2d_3 (Conv2D)            (None, 4, 29, 16)         2320      
_________________________________________________________________
flatten_1 (Flatten)          (None, 1856)              0         
_________________________________________________________________
dense_1 (Dense)              (None, 1)                 1857      
=================================================================
Total params: 6,661
Trainable params: 6,659
Non-trainable params: 2
_________________________________________________________________
None
Train on 3304 samples, validate on 2000 samples
Epoch 1/1
3304/3304 [==============================] - 2s 564us/step - loss: 0.3034 - acc: 0.8853 - val_loss: 0.2095 - val_acc: 0.9285
Number of true positives for validation data: 7
…
