…
File /home/brendonm/projects/rrg-kenclark/pico/30l-16-data/20160902_0/20160902_0/20/fastDAQ_0.bin is missing piezo 3 and/or 7
File /home/brendonm/projects/rrg-kenclark/pico/30l-16-data/20160902_0/20160902_0/20/fastDAQ_0.bin is missing piezo 3 and/or 7
File /home/brendonm/projects/rrg-kenclark/pico/30l-16-data/20160902_0/20160902_0/20/fastDAQ_0.bin is missing piezo 3 and/or 7
_________________________________________________________________
Layer (type)                 Output Shape              Param #   
=================================================================
input_1 (InputLayer)         (None, 100000, 2)         0         
_________________________________________________________________
batch_normalization_1 (Batch (None, 100000, 2)         8         
_________________________________________________________________
conv1d_1 (Conv1D)            (None, 24981, 48)         7728      
_________________________________________________________________
max_pooling1d_1 (MaxPooling1 (None, 4163, 48)          0         
_________________________________________________________________
batch_normalization_2 (Batch (None, 4163, 48)          192       
_________________________________________________________________
conv1d_2 (Conv1D)            (None, 4161, 48)          6960      
_________________________________________________________________
batch_normalization_3 (Batch (None, 4161, 48)          192       
_________________________________________________________________
conv1d_3 (Conv1D)            (None, 4159, 48)          6960      
_________________________________________________________________
batch_normalization_4 (Batch (None, 4159, 48)          192       
_________________________________________________________________
conv1d_4 (Conv1D)            (None, 4157, 48)          6960      
_________________________________________________________________
batch_normalization_5 (Batch (None, 4157, 48)          192       
_________________________________________________________________
max_pooling1d_2 (MaxPooling1 (None, 692, 48)           0         
_________________________________________________________________
batch_normalization_6 (Batch (None, 692, 48)           192       
_________________________________________________________________
conv1d_5 (Conv1D)            (None, 690, 96)           13920     
_________________________________________________________________
batch_normalization_7 (Batch (None, 690, 96)           384       
_________________________________________________________________
conv1d_6 (Conv1D)            (None, 688, 96)           27744     
_________________________________________________________________
batch_normalization_8 (Batch (None, 688, 96)           384       
_________________________________________________________________
conv1d_7 (Conv1D)            (None, 686, 96)           27744     
_________________________________________________________________
batch_normalization_9 (Batch (None, 686, 96)           384       
_________________________________________________________________
conv1d_8 (Conv1D)            (None, 684, 96)           27744     
_________________________________________________________________
batch_normalization_10 (Batc (None, 684, 96)           384       
_________________________________________________________________
max_pooling1d_3 (MaxPooling1 (None, 114, 96)           0         
_________________________________________________________________
batch_normalization_11 (Batc (None, 114, 96)           384       
_________________________________________________________________
conv1d_9 (Conv1D)            (None, 112, 192)          55488     
_________________________________________________________________
batch_normalization_12 (Batc (None, 112, 192)          768       
_________________________________________________________________
conv1d_10 (Conv1D)           (None, 110, 192)          110784    
_________________________________________________________________
batch_normalization_13 (Batc (None, 110, 192)          768       
_________________________________________________________________
conv1d_11 (Conv1D)           (None, 108, 192)          110784    
_________________________________________________________________
batch_normalization_14 (Batc (None, 108, 192)          768       
_________________________________________________________________
conv1d_12 (Conv1D)           (None, 106, 192)          110784    
_________________________________________________________________
batch_normalization_15 (Batc (None, 106, 192)          768       
_________________________________________________________________
conv1d_13 (Conv1D)           (None, 104, 192)          110784    
_________________________________________________________________
batch_normalization_16 (Batc (None, 104, 192)          768       
_________________________________________________________________
conv1d_14 (Conv1D)           (None, 102, 192)          110784    
_________________________________________________________________
batch_normalization_17 (Batc (None, 102, 192)          768       
_________________________________________________________________
max_pooling1d_4 (MaxPooling1 (None, 17, 192)           0         
_________________________________________________________________
batch_normalization_18 (Batc (None, 17, 192)           768       
_________________________________________________________________
conv1d_15 (Conv1D)           (None, 15, 384)           221568    
_________________________________________________________________
batch_normalization_19 (Batc (None, 15, 384)           1536      
_________________________________________________________________
conv1d_16 (Conv1D)           (None, 13, 384)           442752    
_________________________________________________________________
batch_normalization_20 (Batc (None, 13, 384)           1536      
_________________________________________________________________
conv1d_17 (Conv1D)           (None, 11, 384)           442752    
_________________________________________________________________
batch_normalization_21 (Batc (None, 11, 384)           1536      
_________________________________________________________________
flatten_1 (Flatten)          (None, 4224)              0         
_________________________________________________________________
dense_1 (Dense)              (None, 64)                270400    
_________________________________________________________________
batch_normalization_22 (Batc (None, 64)                256       
_________________________________________________________________
dense_2 (Dense)              (None, 16)                1040      
_________________________________________________________________
batch_normalization_23 (Batc (None, 16)                64        
_________________________________________________________________
dense_3 (Dense)              (None, 1)                 17        
=================================================================
Total params: 2,126,889
Trainable params: 2,120,293
Non-trainable params: 6,596
_________________________________________________________________
None
Epoch 1/1

   4/3039 [..............................] - ETA: 2:57:55 - loss: 1.0503 - acc: 0.7500
   8/3039 [..............................] - ETA: 1:29:13 - loss: 1.2352 - acc: 0.5000
…
