…
t).type`.
  from ._conv import register_converters as _register_converters
Using TensorFlow backend.
/usr/local/Cellar/python/3.6.5_1/Frameworks/Python.framework/Versions/3.6/lib/python3.6/importlib/_bootstrap.py:219: RuntimeWarning: compiletime version 3.5 of module 'tensorflow.python.framework.fast_tensor_util' does not match runtime version 3.6
  return f(*args, **kwds)
_________________________________________________________________
Layer (type)                 Output Shape              Param #
=================================================================
input_1 (InputLayer)         (None, 51)                0
_________________________________________________________________
batch_normalization_1 (Batch (None, 51)                204
_________________________________________________________________
dense_1 (Dense)              (None, 12)                624
_________________________________________________________________
dropout_1 (Dropout)          (None, 12)                0
_________________________________________________________________
dense_2 (Dense)              (None, 8)                 104
_________________________________________________________________
dropout_2 (Dropout)          (None, 8)                 0
_________________________________________________________________
dense_3 (Dense)              (None, 1)                 9
=================================================================
Total params: 941
Trainable params: 839
Non-trainable params: 102
_________________________________________________________________
None
Train on 1488 samples, validate on 128 samples
Epoch 1/1
2018-07-17 10:24:58.868432: I tensorflow/core/platform/cpu_feature_guard.cc:137] Your CPU supports instructions that this TensorFlow binary was not compiled to use: SSE4.1 SSE4.2 AVX AVX2 FMA
…
