/usr/local/lib/python3.6/site-packages/h5py/__init__.py:36: FutureWarning: Conversion of the second argument of issubdtype from `float` to `np.floating` is deprecated. In future, it will be treated as `np.float64 == np.dtype(float).type`.
  from ._conv import register_converters as _register_converters
Using TensorFlow backend.
_________________________________________________________________
Layer (type)                 Output Shape              Param #
=================================================================
batch_normalization_1 (Batch (None, 6)                 24
_________________________________________________________________
dense_1 (Dense)              (None, 24)                168
_________________________________________________________________
dropout_1 (Dropout)          (None, 24)                0
_________________________________________________________________
dense_2 (Dense)              (None, 12)                300
_________________________________________________________________
dropout_2 (Dropout)          (None, 12)                0
_________________________________________________________________
dense_3 (Dense)              (None, 6)                 78
_________________________________________________________________
dropout_3 (Dropout)          (None, 6)                 0
_________________________________________________________________
dense_4 (Dense)              (None, 3)                 21
=================================================================
Total params: 591
Trainable params: 579
Non-trainable params: 12
_________________________________________________________________
None
Train on 1064 samples, validate on 128 samples
Epoch 1/1000
2018-07-26 14:31:21.962554: I tensorflow/core/platform/cpu_feature_guard.cc:141] Your CPU supports instructions that this TensorFlow binary was not compiled to use: AVX2 FMA
…
