…
2018-06-30 13:32:45.936685: I tensorflow/core/common_runtime/gpu/gpu_device.cc:1053] Created TensorFlow device (/job:localhost/replica:0/task:0/device:GPU:0 with 11248 MB memory) -> physical GPU (device: 0, name: Tesla P100-PCIE-12GB, pci bus id: 0000:83:00.0, compute capability: 6.0)
2018-06-30 13:32:46.216607: I tensorflow/core/common_runtime/process_util.cc:63] Creating new thread pool with default inter op setting: 2. Tune using inter_op_parallelism_threads for best performance.
_________________________________________________________________
Layer (type)                 Output Shape              Param #   
=================================================================
batch_normalization_1 (Batch (None, 250000, 2)         8         
_________________________________________________________________
conv1d_1 (Conv1D)            (None, 10415, 16)         2064      
_________________________________________________________________
batch_normalization_2 (Batch (None, 10415, 16)         64        
_________________________________________________________________
dropout_1 (Dropout)          (None, 10415, 16)         0         
_________________________________________________________________
conv1d_2 (Conv1D)            (None, 432, 16)           16400     
_________________________________________________________________
batch_normalization_3 (Batch (None, 432, 16)           64        
_________________________________________________________________
dropout_2 (Dropout)          (None, 432, 16)           0         
_________________________________________________________________
conv1d_3 (Conv1D)            (None, 34, 32)            16416     
_________________________________________________________________
batch_normalization_4 (Batch (None, 34, 32)            128       
_________________________________________________________________
dropout_3 (Dropout)          (None, 34, 32)            0         
_________________________________________________________________
conv1d_4 (Conv1D)            (None, 9, 64)             16448     
_________________________________________________________________
batch_normalization_5 (Batch (None, 9, 64)             256       
_________________________________________________________________
dropout_4 (Dropout)          (None, 9, 64)             0         
_________________________________________________________________
conv1d_5 (Conv1D)            (None, 4, 64)             12352     
_________________________________________________________________
batch_normalization_6 (Batch (None, 4, 64)             256       
_________________________________________________________________
dropout_5 (Dropout)          (None, 4, 64)             0         
_________________________________________________________________
flatten_1 (Flatten)          (None, 256)               0         
_________________________________________________________________
dense_1 (Dense)              (None, 1)                 257       
=================================================================
Total params: 64,713
Trainable params: 64,325
Non-trainable params: 388
_________________________________________________________________
None
Epoch 1/1

  1/128 [..............................] - ETA: 1:19:29 - loss: 0.3324 - acc: 0.4688
  2/128 [..............................] - ETA: 39:30 - loss: 0.2694 - acc: 0.5781  
  3/128 [..............................] - ETA: 26:11 - loss: 0.2374 - acc: 0.6562
…
