_________________________________________________________________
Layer (type)                 Output Shape              Param #   
=================================================================
batch_normalization_1 (Batch (None, 50, 50, 10)        40        
_________________________________________________________________
conv2d_1 (Conv2D)            (None, 24, 24, 16)        2576      
_________________________________________________________________
conv2d_2 (Conv2D)            (None, 11, 11, 32)        4640      
_________________________________________________________________
conv2d_3 (Conv2D)            (None, 5, 5, 32)          9248      
_________________________________________________________________
conv2d_4 (Conv2D)            (None, 4, 4, 64)          8256      
_________________________________________________________________
flatten_1 (Flatten)          (None, 1024)              0         
_________________________________________________________________
dense_1 (Dense)              (None, 64)                65600     
_________________________________________________________________
dropout_1 (Dropout)          (None, 64)                0         
_________________________________________________________________
dense_2 (Dense)              (None, 16)                1040      
_________________________________________________________________
dropout_2 (Dropout)          (None, 16)                0         
_________________________________________________________________
dense_3 (Dense)              (None, 1)                 17        
=================================================================
Total params: 91,417
Trainable params: 91,397
Non-trainable params: 20
_________________________________________________________________
None
Epoch 1/1

  32/1214 [..............................] - ETA: 51s - loss: 3.1197 - acc: 0.6250
 320/1214 [======>.......................] - ETA: 4s - loss: 3.1458 - acc: 0.5125 
 608/1214 [==============>...............] - ETA: 1s - loss: 2.9934 - acc: 0.5543
…
