Using TensorFlow backend.
_________________________________________________________________
Layer (type)                 Output Shape              Param #   
=================================================================
input_1 (InputLayer)         (None, 100002)            0         
_________________________________________________________________
batch_normalization_1 (Batch (None, 100002)            400008    
_________________________________________________________________
dense_1 (Dense)              (None, 12)                1200036   
_________________________________________________________________
dropout_1 (Dropout)          (None, 12)                0         
_________________________________________________________________
dense_2 (Dense)              (None, 8)                 104       
_________________________________________________________________
dropout_2 (Dropout)          (None, 8)                 0         
_________________________________________________________________
dense_3 (Dense)              (None, 1)                 9         
=================================================================
Total params: 1,600,157
Trainable params: 1,400,153
Non-trainable params: 200,004
_________________________________________________________________
None
Train on 496 samples, validate on 127 samples
Epoch 1/1
2018-08-01 14:55:33.975154: I tensorflow/core/platform/cpu_feature_guard.cc:141] Your CPU supports instructions that this TensorFlow binary was not compiled to use: AVX2 FMA
…
