…
2019-02-15 17:23:49.665230: I tensorflow/core/common_runtime/gpu/gpu_device.cc:942] 0:   N 
2019-02-15 17:23:49.665360: I tensorflow/core/common_runtime/gpu/gpu_device.cc:1053] Created TensorFlow device (/job:localhost/replica:0/task:0/device:GPU:0 with 7205 MB memory) -> physical GPU (device: 0, name: GeForce GTX 1080, pci bus id: 0000:01:00.0, compute capability: 6.1)
_________________________________________________________________
Layer (type)                 Output Shape              Param #   
=================================================================
batch_normalization_1 (Batch (None, 10, 35, 1)         4         
_________________________________________________________________
conv2d_1 (Conv2D)            (None, 4, 17, 8)          80        
_________________________________________________________________
conv2d_2 (Conv2D)            (None, 3, 16, 8)          264       
_________________________________________________________________
conv2d_3 (Conv2D)            (None, 2, 15, 8)          264       
_________________________________________________________________
flatten_1 (Flatten)          (None, 240)               0         
_________________________________________________________________
dense_1 (Dense)              (None, 16)                3856      
_________________________________________________________________
dense_2 (Dense)              (None, 1)                 17        
=================================================================
Total params: 4,485
Trainable params: 4,483
Non-trainable params: 2
_________________________________________________________________
None
Train on 2804 samples, validate on 500 samples
Epoch 1/1
2804/2804 [==============================] - 1s 341us/step - loss: 0.0372 - acc: 0.3153 - val_loss: 0.5999 - val_acc: 0.1500
Train on 2804 samples, validate on 500 samples
…
