HYPERPARAMETERS
L2 Lambda: 0.0006
Activation: tanh
Convolutional Layers: 3
Filters: 8
Dense Layers: 1
Zero Weight: 0.01
_________________________________________________________________
Layer (type)                 Output Shape              Param #   
=================================================================
batch_normalization_1 (Batch (None, 10, 35, 1)         4         
_________________________________________________________________
conv2d_1 (Conv2D)            (None, 4, 17, 8)          80        
_________________________________________________________________
conv2d_2 (Conv2D)            (None, 3, 16, 8)          264       
_________________________________________________________________
conv2d_3 (Conv2D)            (None, 2, 15, 8)          264       
_________________________________________________________________
flatten_1 (Flatten)          (None, 240)               0         
_________________________________________________________________
dense_1 (Dense)              (None, 16)                3856      
_________________________________________________________________
dense_2 (Dense)              (None, 1)                 17        
=================================================================
Total params: 4,485
Trainable params: 4,483
Non-trainable params: 2
_________________________________________________________________
None
Train on 2804 samples, validate on 500 samples
Epoch 1/1

  32/2804 [..............................] - ETA: 1:02 - loss: 0.0627 - acc: 0.4375
 704/2804 [======>.......................] - ETA: 2s - loss: 0.0464 - acc: 0.3565  
…
